model/mnist/ViT_model.pt (torch, 772425 bytes, 96 tensors)

embedding.cls_token f4 [1, 1, 64]
0	0x3af7858f	0.0018884408
1	0x3ae128e6	0.0017178326
2	0x3c15bb89	0.00913895
3	0xbb3657ae	-0.0027823257
4	0xbb86070d	-0.004090196
5	0xbb9377cb	-0.0045003644
6	0x3b1cc1ee	0.0023919302
7	0x3baf2a20	0.005345598
8	0xbb121138	-0.0022288095
9	0x3a985c77	0.0011624236
10	0xbc07cec8	-0.008289047
11	0xba0efcac	-0.0005454521
12	0x3b163e64	0.0022925371
13	0xbb37aa8f	-0.0028025245
14	0x39bb5bc1	0.0003573578
15	0x3b697a3b	0.0035625834
16	0x3b96613a	0.004589227
17	0xbb90ac53	-0.004415074
18	0xbb785c35	-0.0037896757
19	0xbbc373a0	-0.0059647113
20	0xbbf1c152	-0.007377782
21	0x3b2cd46b	0.0026371728
22	0x3ba9fe01	0.0051877503
23	0x39a1cf54	0.00030862784
24	0xbbc4288e	-0.00598628
25	0x3aee2410	0.0018168706
26	0x38429d44	4.639967e-05
27	0x3a07c6d7	0.0005179471
28	0x39a2b929	0.00031037003
29	0x3bbdcd13	0.005792269
30	0x3a97f918	0.0011594621
31	0x39ed4dbc	0.0004526208
32	0x3b8a0774	0.0042123143
33	0x3aefcb91	0.001829492
34	0xbb2fc9c7	-0.002682315
35	0xbb7f1b64	-0.0038926238
36	0xba5831f7	-0.00082471914
37	0xbb04881c	-0.002022273
38	0x3b8090c5	0.003923508
39	0xbbb46e92	-0.005506345
40	0x3a150cf8	0.00056858314
41	0x3af68f88	0.0018811086
42	0x3b7b63bb	0.0038359005
43	0xba97f337	-0.0011592869
44	0xbb1d8ad4	-0.0024039047
45	0xbbc325ef	-0.00595545
46	0x3bd9d3d9	0.0066475687
47	0xba463cec	-0.00075621787
48	0xba039c28	-0.00050205225
49	0x39c0a842	0.00036746456
50	0x3afe2345	0.0019389173
51	0xbb72bf10	-0.0037040152
52	0x3a042e6e	0.0005042319
53	0x3a9e3ac6	0.0012071959
54	0x3b5abac1	0.0033375474
55	0x3ace0fb3	0.0015721231
56	0x3b69f2d5	0.0035697718
57	0xbb26edf5	-0.0025471423
58	0x3abcaeca	0.0014395353
59	0x3ae89164	0.0017743525
60	0x3be36464	0.0069394577
61	0x3aac74fa	0.001315742
62	0x3a63abe5	0.0008684977
63	0xbb3ae763	-0.0028519265

embedding.pos_embedding f4 [1, 50, 64]
0	0x3af78589	0.0018884401
1	0x3ae128ed	0.0017178335
2	0x3c15bb87	0.009138948
3	0xbb3657ab	-0.002782325
4	0xbb86070a	-0.0040901946
5	0xbb9377cc	-0.004500365
6	0x3b1cc1f2	0.0023919311
7	0x3baf2a1e	0.005345597
8	0xbb121139	-0.0022288098
9	0x3a985c7b	0.0011624241
10	0xbc07cec9	-0.0082890475
11	0xba0efca1	-0.0005454515
12	0x3b163e60	0.0022925362
13	0xbb37aa8e	-0.0028025243
14	0x39bb5be5	0.00035735886
15	0x3b697a3c	0.0035625836
16	0x3b966139	0.0045892266
17	0xbb90ac52	-0.0044150734
18	0xbb785c37	-0.0037896761
19	0xbbc3739f	-0.005964711
20	0xbbf1c151	-0.0073777814
21	0x3b2cd468	0.0026371721
22	0x3ba9fe02	0.005187751
23	0x39a1cf12	0.00030862592
24	0xbbc4288c	-0.005986279
25	0x3aee2403	0.0018168691
26	0x38429d9e	4.6399997e-05
27	0x3a07c6da	0.00051794725
28	0x39a2b928	0.00031037
29	0x3bbdcd16	0.0057922704
30	0x3a97f920	0.0011594631
31	0x39ed4da2	0.00045262004
32	0x3b8a0773	0.004212314
33	0x3aefcb88	0.001829491
34	0xbb2fc9c9	-0.0026823154
35	0xbb7f1b6a	-0.0038926252
36	0xba5831e4	-0.00082471804
37	0xbb048818	-0.002022272
38	0x3b8090c6	0.0039235083
39	0xbbb46e95	-0.0055063465
40	0x3a150d01	0.00056858367
41	0x3af68f8d	0.0018811092
42	0x3b7b63bb	0.0038359005
43	0xba97f337	-0.0011592869
44	0xbb1d8ad2	-0.0024039042
45	0xbbc325ed	-0.005955449
46	0x3bd9d3dd	0.0066475705
47	0xba463ce1	-0.0007562172
48	0xba039c2c	-0.0005020525
49	0x39c0a83e	0.00036746444
50	0x3afe233d	0.0019389164
51	0xbb72bf1c	-0.003704018
52	0x3a042e6e	0.0005042319
53	0x3a9e3ac6	0.0012071959
54	0x3b5abac1	0.0033375474
55	0x3ace0fb1	0.0015721229
56	0x3b69f2ce	0.0035697701
57	0xbb26edf5	-0.0025471423
58	0x3abcaebe	0.0014395339
59	0x3ae89163	0.0017743524
60	0x3be36466	0.0069394587
61	0x3aac7511	0.0013157447
62	0x3a63abd3	0.00086849666
63	0xbb3ae75a	-0.0028519244
64	0xb99e98a0	-0.00030249823
65	0x3a44d19e	0.0007508042
66	0xbb04037c	-0.0020143678
67	0xbab878a9	-0.0014074045
68	0x3b3e260f	0.0029014384
69	0xbb9a9ea7	-0.00471862
70	0xba3d0798	-0.00072109094
71	0x3adbb71a	0.0016762943
72	0xbafe31d6	-0.0019393514
73	0x3a82fd84	0.0009993766
74	0x3b22531c	0.0024768775
75	0x3b39ea74	0.0028368505
76	0x382821e3	4.008588e-05
77	0x3adea997	0.0016987798
78	0xb9e83cad	-0.00044295695
79	0xba07ab67	-0.0005175382
80	0x3aacef27	0.0013193832
81	0x3a828b14	0.0009959661
82	0xbb27b627	-0.002559075
83	0x3ac70bc6	0.0015186004
84	0x3905ace5	0.00012748277
85	0x3b6ae8a2	0.0035844226
86	0xbaf82de2	-0.0018934573
87	0xba82ebdf	-0.0009988508
88	0xba17ee9e	-0.00057957496
89	0xbb83db28	-0.004023928
90	0x3b1fcde2	0.002438419
91	0xb869cb42	-5.5740828e-05
92	0xb92b6736	-0.0001634628
93	0x39d5ac48	0.00040754885
94	0x3b07ac8e	0.0020702216
95	0xbab968d3	-0.001414562
96	0x3b310e36	0.0027016527
97	0x3a4ab6d4	0.0007732932
98	0xbabf7c9f	-0.0014609284
99	0xbb1a8f3d	-0.0023583912
100	0x3a6f7e6f	0.00091359665
101	0x3b5c178b	0.0033583369
102	0x38ba5008	8.884078e-05
103	0xb9b9c460	-0.0003543226
104	0xb9d039b9	-0.00039715858
105	0x3af43ebd	0.001863442
106	0xba57fffa	-0.00082397426
107	0x3a35a6e0	0.00069294684
108	0x3a3cdc0f	0.0007204422
109	0x3a8f23bd	0.0010920685
110	0xb8e422db	-0.000108783795
111	0x3b76cb90	0.0037657954
112	0xbb1cf862	-0.0023951759
113	0xbb3c92c9	-0.0028774014
114	0x3a10965b	0.0005515569
115	0xbb0dad98	-0.0021618363
116	0xba39992b	-0.0007080014
117	0xba2cbd3a	-0.0006589476
118	0x3acb4220	0.0015507378
119	0x3a3db56a	0.00072368106
120	0xb98d4824	-0.00026947365
121	0xbab5bb08	-0.0013864944
122	0x3a2d51c2	0.0006611609
123	0x3b5ad2aa	0.0033389726
124	0xba9534e8	-0.0011383565
125	0xb9da12fa	-0.0004159434
126	0xbb740edb	-0.00372403
127	0xba058427	-0.00050932396
128	0xba25811c	-0.0006313489
129	0x3a8e73c9	0.0010868247
130	0xba917635	-0.001109785
131	0xb9aa3ce5	-0.00032470297
132	0x3b372fcb	0.002795207
133	0xbb8aeb37	-0.0042394656
134	0xba205379	-0.0006115954
135	0x3b13f553	0.0022576645
136	0xbb04ea54	-0.0020281272
137	0x3aef0f01	0.0018238724
138	0x3b386b07	0.0028139965
139	0x3b3528ef	0.0027642807
140	0x3a4a5f11	0.00077198545
141	0x3ac8de82	0.0015325102
142	0xb8a03904	-7.6400145e-05
143	0x39a53491	0.00031510417
144	0x388ca6c5	6.7067835e-05
145	0x3abf5875	0.0014598506
146	0xbb4d039d	-0.0031282671
147	0x3aba892f	0.0014231558
148	0x39c0935c	0.00036730885
149	0x3b2f3a5e	0.002673767
150	0xbb176b63	-0.002310478
151	0xba9b5521	-0.0011850932
152	0xb90bb1a1	-0.00013322245
153	0xbb8fe50c	-0.004391318
154	0x3b22fb41	0.0024868997
155	0x3a4df2a9	0.00078562886
156	0x396ec5d4	0.00022771145
157	0xb6a7ebce	-5.004439e-06
158	0x3ad9a843	0.0016605932
159	0xbaf75645	-0.0018870315
160	0x3b112cff	0.0022152064
161	0x3997eb73	0.00028976388
162	0xbb1465ef	-0.0022643765
163	0xbb250e83	-0.0025185652
164	0x3b060b5c	0.0020453548
165	0x3b984550	0.0046469346
166	0x3a54b8f6	0.00081147195
167	0xb9a6f6cc	-0.00031845865
168	0xb9962b29	-0.00028642386
169	0x3ae00c26	0.0017093464
170	0xbab4fdce	-0.001380855
171	0x3aa3c0ce	0.0012493373
172	0x3aca0340	0.0015412346
173	0x3aa62d97	0.0012678382
174	0xba4badeb	-0.0007769751
175	0x3b63af46	0.0034741922
176	0xba271e9c	-0.00063751056
177	0xbb374f1e	-0.0027970742
178	0x3a318543	0.00067718717
179	0xbb0dbe41	-0.0021628293
180	0xb9f513f0	-0.00046744896
181	0xb9b9f90c	-0.00035471504
182	0x3aef6a16	0.0018265869
183	0x3a18819e	0.00058176543
184	0xb979cbc0	-0.00023822393
185	0xbb14179f	-0.0022597087
186	0x37e0e8bc	2.6811256e-05
187	0x3ae6f376	0.0017620164
188	0xbaa081ae	-0.0012245679
189	0xb996322c	-0.0002864761
190	0xbb883e74	-0.0041578356
191	0xbaad2ec8	-0.0013212794
192	0xbb778f98	-0.0037774798
193	0x3bceaf6b	0.0063075325
194	0x3af8f65d	0.001899432
195	0x3bc88d75	0.0061203786
196	0x3bc66e77	0.006055649
197	0xbb263320	-0.0025360063
198	0xb90cbd29	-0.00013421908
199	0x3b65e97c	0.0035081794
200	0xbac64f8e	-0.001512991
201	0x3c0445bb	0.008073266
202	0x3b4840b5	0.0030556147
203	0x3b690054	0.0035553174
204	0x3b06ab43	0.0020548857
205	0x3ae7fe7b	0.0017699742
206	0x3b0650a4	0.0020494843
207	0x3bbe982b	0.0058164797
208	0xbbf51f7d	-0.0074805603
209	0x3c079670	0.008275613
210	0xbbb590a9	-0.0055409265
211	0x39f6f507	0.00047103336
212	0x3a23f350	0.0006254213
213	0xba942fe8	-0.0011305781
214	0xbb80b04f	-0.0039272676
215	0xbb43c773	-0.002987352
216	0xb8fc1a00	-0.00012021139
217	0xbbc68a0a	-0.006058936
218	0x3aba31b4	0.0014205487
219	0x3c0a7d3c	0.00845271
220	0x3b13a6aa	0.002252976
221	0xbabeccdb	-0.0014556901
222	0xbb78a5a0	-0.0037940517
223	0xbb91f0a5	-0.004453736
224	0x3a6119e7	0.00085869286
225	0xbb33aa2a	-0.0027414658
226	0xbbc8b83e	-0.006125479
227	0xbc0a9d64	-0.008460376
228	0x3bd2556f	0.006418876
229	0x3c378cd9	0.011203014
230	0x3aa5755d	0.0012623478
231	0xbb076fcd	-0.0020666004
232	0x3ac03ed7	0.0014667165
233	0x388b6119	6.646122e-05
234	0xbbba9c60	-0.005694911
235	0x3bf25205	0.0073950314
236	0x3bbfd98c	0.005854791
237	0x3b61998f	0.0034423803
238	0xbb791713	-0.0038008138
239	0x3b232ea9	0.0024899638
240	0x3c368348	0.011139698
241	0xbb6f10af	-0.003647845
242	0x3aaaf0f9	0.0013041786
243	0xbb1ad9fa	-0.002362846
244	0xba953f7c	-0.0011386718
245	0x3aeb7471	0.0017963779
246	0x3b268d84	0.002541394
247	0x3a6227aa	0.0008627126
248	0x39cf79d6	0.00039572892
249	0xbc170a64	-0.009218786
250	0xbaf220bc	-0.001847289
251	0xbc0e2c3f	-0.008677541
252	0xbaf62848	-0.0018780315
253	0x3b0751c1	0.0020648094
254	0xbc0be35a	-0.008538092
255	0x39e5da12	0.0004384076

embedding.conv1.weight f4 [64, 1, 4, 4]
0	0x3d88168f	0.06644928
1	0xbe5eae6a	-0.21746221
2	0x3cece635	0.028918365
3	0x3e79fa41	0.2441187
4	0x3c63e960	0.013910621
5	0x3da409cf	0.08009683
6	0x3d9aaa02	0.07551958
7	0x3e451e5f	0.19249867
8	0xbcf0ad86	-0.029379617
9	0xbe228c06	-0.15873727
10	0xbe53834e	-0.20655558
11	0x3e61c14d	0.22046395
12	0x3e009f71	0.12560822
13	0xbd70421c	-0.058656797
14	0xbc6f8b51	-0.014620618
15	0x3cf5b2ee	0.029992547
16	0x3e653cf3	0.22386532
17	0x3b9940b3	0.004676902
18	0x3e654b43	0.22391991
19	0x3dde6cde	0.108606085
20	0x3dd59ed6	0.10430686
21	0x3d5f4924	0.05451311
22	0xbdeca953	-0.115557335
23	0xbe68dad2	-0.22739723
24	0xbdec656b	-0.115427814
25	0x3dca77a6	0.098861024
26	0xbe10de52	-0.14147308
27	0xbe5b65e4	-0.21425587
28	0xbe11bf53	-0.1423314
29	0xbe10b67c	-0.14132112
30	0x3e7ad12e	0.24493858
31	0x3e7399c3	0.23789124
32	0xbe161902	-0.14657977
33	0xbde7db78	-0.11321157
34	0x3dba62ec	0.09100899
35	0x3e5f8549	0.21828188
36	0xbd73b4bc	-0.059498534
37	0x3de0209a	0.10943718
38	0x3d8fc400	0.07019806
39	0xbe255089	-0.16144003
40	0xbccc241e	-0.024919566
41	0x3e6f27cf	0.2335503
42	0x3d8d8ef0	0.06912029
43	0xbd2626a1	-0.040564183
44	0x3e1d5f89	0.15368475
45	0xbe6441e6	-0.22290763
46	0xbe23b6f7	-0.15987764
47	0x3d3a194b	0.045434278
48	0xbe1b0612	-0.15139034
49	0x3da73115	0.081636585
50	0xbe2f6258	-0.17127359
51	0x3e3c1a15	0.18369325
52	0xbdf1a3ca	-0.117988184
53	0x3e73710e	0.23773596
54	0xbc45cf0e	-0.012073291
55	0xbd54915d	-0.05189644
56	0x3e5c3fc5	0.21508701
57	0x3d4e244a	0.050327577
58	0x3d2d5f85	0.042327423
59	0x3dcb7a08	0.09935385
60	0x3e469a3f	0.19394778
61	0x3c7df52d	0.015500349
62	0x3e0ed304	0.13947684
63	0x3e79c4ac	0.2439143
64	0xbd33cb42	-0.043895014
65	0x3d0a25e4	0.03372754
66	0xbd7ab83f	-0.061210867
67	0xbe48ac68	-0.19597018
68	0xbd530c6c	-0.05152552
69	0xbd8bbd00	-0.06823158
70	0x3e34c5c9	0.17653574
71	0xbd0be4e7	-0.034153845
72	0x3e74fea2	0.2392526
73	0x3e3f7e2c	0.18700475
74	0xba2f8d15	-0.0006696743
75	0x3d45f1bf	0.04832625
76	0x3e2ccfe1	0.16876175
77	0x3e48b5c1	0.19600584
78	0xbe35e8b7	-0.17764555
79	0x3e0359d9	0.12827243
80	0x3e293c8b	0.16527002
81	0x3d6e6af1	0.058207456
82	0x3e31d51d	0.17366453
83	0x3d0aec60	0.03391683
84	0xbe4f6338	-0.20252693
85	0xbdf6c9d5	-0.12050215
86	0xbe61639c	-0.22010654
87	0xbcd1e807	-0.025623335
88	0x3e0f5b61	0.13999702
89	0xbdf81f84	-0.12115386
90	0x3e2b9a99	0.16758193
91	0x3c66d003	0.01408768
92	0x3e73abb4	0.23795968
93	0x3e693632	0.2277458
94	0x3e43632e	0.19080803
95	0xbe586c16	-0.21134982
96	0x3da4f5c1	0.08054686
97	0x3e5d4f21	0.21612217
98	0xbe0098ae	-0.12558243
99	0x3e0d9cee	0.13829395
100	0xbda5d971	-0.08098114
101	0x3e68634e	0.22694132
102	0xbcc08a99	-0.023503589
103	0x3e3f088f	0.18655609
104	0xbd62f444	-0.05540873
105	0x3e6a9aee	0.22910663
106	0x3deabe46	0.11462073
107	0x3e768eba	0.24077883
108	0xbd4589f8	-0.04822728
109	0x3dbe4ab4	0.09291592
110	0xbe1c4038	-0.15258873
111	0xbdee2c48	-0.1162954
112	0x3d15ea1c	0.036600217
113	0xbe624552	-0.22096756
114	0xbda8a12e	-0.082338676
115	0xbe45a2d7	-0.193004
116	0xbdb858c8	-0.09001309
117	0x3d27f2a2	0.041002877
118	0xbc74b982	-0.014936807
119	0x3e1d9790	0.15389848
120	0x3d0ddea7	0.034636166
121	0x3e63b272	0.2223604
122	0xbe4ebfeb	-0.20190398
123	0xbe79db56	-0.24400076
124	0xbe024d09	-0.12724699
125	0x3e1434cd	0.14473267
126	0xbd9ca093	-0.076478146
127	0xbe2c0d90	-0.16802049
128	0x3e25b0b3	0.16180687
129	0xbdc6d184	-0.09707931
130	0x3e1c88b5	0.15286525
131	0x3e303b59	0.1721014
132	0x3d27d135	0.040971
133	0x3d5ff9cd	0.054681588
134	0x3e148f66	0.14507827
135	0x3e3d5284	0.18488508
136	0x3da21d49	0.07915742
137	0xbe0cf628	-0.13765776
138	0x3e2bbd26	0.16771373
139	0xbca9561a	-0.02067094
140	0x3d3a6fd6	0.04551681
141	0x3e6c2c6c	0.2306382
142	0x3e0000b1	0.12500264
143	0xbe2dc86a	-0.16970983
144	0x3d858e44	0.06521276
145	0xbe552cfe	-0.20817944
146	0xbe48463b	-0.19558041
147	0xbe0a1c44	-0.13487345
148	0xbc6b5c11	-0.014365212
149	0xbcba3579	-0.022730576
150	0xbd5824b7	-0.05276939
151	0x3e0580d7	0.1303743
152	0x3e6b2319	0.22962607
153	0x39a3a0a1	0.0003120946
154	0xbd5c510d	-0.053788234
155	0xbe3b4ebe	-0.18291757
156	0xbdf15b14	-0.1178495
157	0xbcab6665	-0.020922849
158	0x3e0b5dab	0.1360995
159	0x3e80cd7c	0.25156772
160	0x3e78c20e	0.24292776
161	0x3db70296	0.0893604
162	0xbe0e8eca	-0.13921657
163	0xbe37e8bb	-0.17959873
164	0xbd973b24	-0.07384327
165	0x3dcc3b0e	0.09972201
166	0x3e6ae2cd	0.2293808
167	0xbe66e814	-0.22549468
168	0xbd6aa60b	-0.057287257
169	0x3e3c1f29	0.18371262
170	0xbcec8e02	-0.028876308
171	0x3e1c153b	0.15242474
172	0x3e45a8f7	0.19302736
173	0x3e587eff	0.21142195
174	0x3cb9eafe	0.02269506
175	0x3dcc3748	0.099714816
176	0xbc219dca	-0.00986428
177	0x3d5390be	0.05165171
178	0x3e65b53b	0.22432415
179	0x3e28558a	0.1643888
180	0x3e31a722	0.17348912
181	0x3e0ec6d1	0.1394303
182	0xbe5c9f95	-0.2154525
183	0x3d7f9237	0.0623953
184	0xbc1a16d6	-0.009404859
185	0x3dbdbaa6	0.09264116
186	0x3d90544a	0.07047327
187	0xbe4818cd	-0.19540711
188	0x3e4cdc52	0.2000592
189	0x3d44d521	0.048054818
190	0xbe3f6e0b	-0.18694322
191	0x3e1cd9eb	0.15317504
192	0xbe565b97	-0.20933376
193	0x3e0f4443	0.13990884
194	0xbdaa3faf	-0.08312928
195	0x3ab1d6a0	0.0013567992
196	0xbdc02b85	-0.09383301
197	0x3dbbf8ce	0.09178315
198	0x3e0cf07d	0.13763614
199	0xbe3bab20	-0.18326998
200	0xbde14a50	-0.11000502
201	0x3d3afe3c	0.045652613
202	0xbd35b8dc	-0.04436575
203	0xbe215e58	-0.15758646
204	0x3e71bd57	0.23607384
205	0x3e416678	0.18886745
206	0xbddcd65d	-0.10783074
207	0x3cfa9c18	0.03059201
208	0x3e7fbfe1	0.2497554
209	0x3e67d71d	0.22640653
210	0xbe3e7381	-0.18598749
211	0x3c0f2bbe	0.008738456
212	0x3d1fbcec	0.03899853
213	0x3e5af758	0.21383417
214	0xbe095bd5	-0.13413937
215	0xbdc924a3	-0.09821441
216	0xbe71c46e	-0.23610088
217	0xbe6617bb	-0.2246999
218	0xbe64e1e4	-0.22351795
219	0x3e4e33a6	0.2013689
220	0xbcd79d36	-0.026320081
221	0x3d89c818	0.06727618
222	0xbcb46ac8	-0.022023574
223	0x3e02db14	0.12778884
224	0xbe5f0f57	-0.21783195
225	0x3e3bd0e6	0.18341407
226	0xbdd6b54c	-0.104837984
227	0x3da62aa4	0.08113602
228	0x3e4b5964	0.19858319
229	0x3e7a8367	0.24464189
230	0x3c480b6a	0.012209753
231	0xbd4629b3	-0.04837961
232	0x3e4e7295	0.20160897
233	0xbe637189	-0.22211279
234	0xbe227ddf	-0.15868329
235	0x3e1cbda6	0.1530672
236	0x3e2bca91	0.16776492
237	0x3dfd1d89	0.12359149
238	0x3c1d921d	0.009617356
239	0x3c219de0	0.0098643005
240	0x3d816f22	0.06320025
241	0xba223c8d	-0.00061888323
242	0x3e39bb95	0.18137963
243	0x3db857b4	0.09001103
244	0x3e09372b	0.13399951
245	0x3d8c7fd0	0.06860316
246	0x3e5c3cc6	0.21507558
247	0x3ca64c00	0.020299911
248	0xbdecbd40	-0.11559534
249	0x3bc49961	0.0059997295
250	0x3d0d1abc	0.034449324
251	0x3e0d1a21	0.13779499
252	0x3d8a33ec	0.067481846
253	0x3d0ecb4e	0.034861855
254	0xbe2a544a	-0.16633716
255	0x3e09b638	0.13448417

embedding.conv1.bias f4 [64]
0	0xbcd6071e	-0.02612644
1	0xbe4801cb	-0.19531934
2	0x3e27a21b	0.16370432
3	0x3e3052db	0.17219107
4	0xbd187130	-0.03721732
5	0x3e156bca	0.145919
6	0x3dc4b9bb	0.09605738
7	0xbe270ae0	-0.16312742
8	0x3e5f36a9	0.21798195
9	0x3c4fc653	0.0126815615
10	0x3da342fc	0.07971761
11	0xbc99fc58	-0.018797085
12	0xbde68f9c	-0.1125786
13	0xbe0bd479	-0.1365527
14	0x3d281370	0.041034162
15	0x3d8b1b7a	0.0679235
16	0x3e6a47ed	0.22879
17	0xbd68a637	-0.05679914
18	0x3e6ee041	0.23327734
19	0x3b9dbaf9	0.0048135486
20	0x3d49b54c	0.049245164
21	0xbe07f42f	-0.13276742
22	0xbdeb4d00	-0.11489296
23	0x3cbaf6ef	0.022822825
24	0x3e27f64c	0.16402549
25	0x3d2bdcc9	0.041958604
26	0xbd042f17	-0.03227147
27	0xbd767fe2	-0.060180552
28	0xbe594866	-0.21219024
29	0xbe23a6f0	-0.1598165
30	0x3bfb838a	0.007675593
31	0xbd872817	-0.065994434
32	0xbe75a97a	-0.23990431
33	0xbb73690f	-0.0037141477
34	0x3e16471f	0.14675568
35	0x3d3e4c6e	0.046459608
36	0xbe61d245	-0.22052868
37	0xbdc77ca3	-0.097405694
38	0x3d96941b	0.073524676
39	0xbd43d1ec	-0.04780762
40	0x3e2d3b76	0.16917214
41	0x3dec2617	0.115307026
42	0x3e6d237c	0.23158067
43	0x3cbb0b9f	0.02283269
44	0xbe602133	-0.21887664
45	0xbe2594f7	-0.16170107
46	0xbe61c402	-0.22047427
47	0x3e20bad7	0.15696274
48	0xbc41f2cb	-0.0118376715
49	0xbd78615b	-0.06063972
50	0x3c58f254	0.013241369
51	0x3e3e7aa0	0.18601465
52	0x3e21b484	0.15791517
53	0x3e40a1fb	0.1881179
54	0x3bc79771	0.0060910513
55	0x3c8bd0f8	0.017067418
56	0xbe57e537	-0.21083532
57	0xbd67c2c8	-0.056582242
58	0x3d109a12	0.035303183
59	0x3d415fc5	0.047210474
60	0x3e7229c7	0.2364875
61	0xbe7794f1	-0.2417791
62	0xbdc2c55a	-0.09510298
63	0xbe65c83c	-0.22439665

encoder.0.attention.queries.weight f4 [64, 64]
0	0x3b90e4ac	0.004421791
1	0xbd4dde64	-0.050260916
2	0xbe01b0e1	-0.1266513
3	0xbd0f3804	-0.03496553
4	0x3d99dcdb	0.07512828
5	0x3e01dfd1	0.12683035
6	0xbde645ef	-0.112438075
7	0x3d555737	0.052085128
8	0xbdd72fc8	-0.105071604
9	0x3de884f1	0.113534816
10	0xbcf02f7b	-0.029319515
11	0x3dc68cd3	0.09694829
12	0xbdd5a55d	-0.10431931
13	0x3da14854	0.078751236
14	0xbcfe2163	-0.03102178
15	0xbccf4b30	-0.025304407
16	0xbdd86c54	-0.10567537
17	0x3c7c7ed1	0.015411095
18	0xba21e69d	-0.00061760267
19	0xbcaf044a	-0.02136435
20	0x3de6b091	0.11264146
21	0xbdd95953	-0.1061274
22	0x3c5deacd	0.01354475
23	0x3d149aa8	0.036280304
24	0x3c4d1e5c	0.012519445
25	0xbdac4654	-0.084118515
26	0xbd4bea55	-0.049784023
27	0x3dab7fd1	0.083739884
28	0xbdb47e31	-0.088131316
29	0xbdbe732e	-0.092993125
30	0x3d6ace3f	0.057325598
31	0xbd95c91d	-0.0731375
32	0xbde2e1a1	-0.110781915
33	0x3de7b66e	0.113140926
34	0xbdd3bdb5	-0.10338918
35	0xbd1150dd	-0.035477508
36	0xbd8dfd9d	-0.069331385
37	0xbd746aa5	-0.059672017
38	0xbca5fbbc	-0.020261638
39	0xbc76199b	-0.015020753
40	0xbca064b2	-0.019579265
41	0x3db83d73	0.089960955
42	0xbe05327a	-0.13007537
43	0xbde51461	-0.111855276
44	0x3d23b528	0.039967686
45	0xbb305930	-0.0026908629
46	0x3cfcdd1f	0.030867158
47	0x3da3e319	0.080023
48	0x3d37a7b8	0.044837683
49	0x3ddc9141	0.107698925
50	0xbddbaa3e	-0.107258305
51	0xbca198dc	-0.01972621
52	0xbccb7224	-0.0248347
53	0x3d813c1d	0.06310294
54	0xbd43994f	-0.04775363
55	0xbd94003a	-0.07226606
56	0xbd047a37	-0.032343116
57	0xbd0db1a6	-0.034593247
58	0xbdc03e5c	-0.09386894
59	0xbb3f6a6f	-0.0029207726
60	0xbc54fa5d	-0.012999144
61	0xbd676f2e	-0.056502514
62	0xbde7f8ae	-0.11326729
63	0x3c89a7cd	0.016803646
64	0x3e029154	0.12750751
65	0x3d165e44	0.036710992
66	0x3dab4883	0.0836344
67	0xbd082715	-0.033240397
68	0x3c4e8138	0.01260405
69	0x3dc822e3	0.09772279
70	0xbdfe6346	-0.12421279
71	0xbded4401	-0.11585236
72	0xbdbd06c9	-0.0922981
73	0xbd9e0915	-0.07716576
74	0xbd9472a3	-0.07248428
75	0x3db1b692	0.08677401
76	0xbd305357	-0.04304823
77	0xbcf83c6f	-0.030302254
78	0xbc990769	-0.018680291
79	0xbde5e317	-0.112249546
80	0x3db5ab7e	0.088706
81	0x3d7538b5	0.059868533
82	0x3d2af374	0.04173608
83	0x3c26e70c	0.010186922
84	0x3deecb62	0.11659886
85	0x3d6f7446	0.058460496
86	0x3d529d37	0.051419463
87	0x3d3e56c5	0.04646947
88	0xbd1cbcfb	-0.038266163
89	0x3daec7da	0.085342124
90	0xbdd3468f	-0.10316192
91	0xbdc4f232	-0.096165076
92	0xbd06fd96	-0.032956682
93	0x3dc918fe	0.0981922
94	0xbd2a570a	-0.041586913
95	0x3ddc47bf	0.10755872
96	0xbca03d1d	-0.019560391
97	0x3d601430	0.054706752
98	0x3c6b6735	0.014367868
99	0xbdb8dc3c	-0.090263814
100	0x3dafc86e	0.08583151
101	0xbdb9c18f	-0.090701215
102	0xbd972c70	-0.07381523
103	0xbdf8f47b	-0.12156006
104	0xbcbcfcaa	-0.023069698
105	0x3e045488	0.12922871
106	0xbbc0c0c4	-0.0058823545
107	0xbc14ccda	-0.009082044
108	0xbb341c7f	-0.0027482805
109	0x3c49d89e	0.012319712
110	0x3d6f3597	0.058400717
111	0x3d4f8a6c	0.05066912
112	0x3c2670a5	0.0101586925
113	0xbcedbdf1	-0.029021235
114	0x3dc07b02	0.09398462
115	0x3d9ca602	0.07648851
116	0x3e02e1f1	0.12781502
117	0xbd5a2be7	-0.053264525
118	0xbdb51f14	-0.08843818
119	0x3da0deb5	0.07854978
120	0xbc291ac5	-0.010321324
121	0xbdc26fe3	-0.09493997
122	0x3caa393d	0.020779246
123	0xbdde56e8	-0.1085642
124	0xbb2d25c7	-0.0026420222
125	0xbc911a32	-0.017712686
126	0xbdbe10a8	-0.09280521
127	0x3db5211c	0.08844206
128	0x3c0e8f3a	0.00870114
129	0xbe0c6516	-0.13710436
130	0xbd2a74c4	-0.041615263
131	0xbd97bab3	-0.07408657
132	0xbde282d9	-0.110601135
133	0xbd4dba5b	-0.05022655
134	0x3cc79f99	0.024368094
135	0xbda3ca86	-0.07997613
136	0xbd882e49	-0.06649453
137	0x3dc8e552	0.098093644
138	0x3da30ab7	0.07961028
139	0x3dddbbcb	0.10826834
140	0xbdd11aff	-0.10210227
141	0xbc96a677	-0.018389923
142	0x3d873f38	0.06603855
143	0xbb928908	-0.004471902
144	0x3dee0d6d	0.116236545
145	0x3daa58cd	0.08317719
146	0x3d849f07	0.064756446
147	0xbd04aebf	-0.032393213
148	0xbd0c927b	-0.034319382
149	0x3d2fdb01	0.042933468
150	0xba9c309f	-0.0011916346
151	0x3d85f54d	0.06540928
152	0xbcac34da	-0.021021295
153	0x3ca7deb6	0.020491939
154	0x3b9f9e9b	0.004871202
155	0x3c11a6ae	0.008889837
156	0xbd0af53e	-0.033925287
157	0x3db47b0c	0.08812532
158	0x3df7ebf4	0.12105551
159	0x3d61bf03	0.055113804
160	0xbd5ff243	-0.0546744
161	0xbdb3fc48	-0.08788353
162	0xbdf9fb47	-0.122061305
163	0xbd3d435c	-0.046206817
164	0xbcccaac4	-0.024983771
165	0xbd8b1f87	-0.06793123
166	0xbd834223	-0.06409099
167	0x3b52fdd4	0.003219475
168	0x3db39836	0.08769266
169	0x3d7d02c5	0.06177022
170	0xbbf4f40c	-0.0074753817
171	0xbd492909	-0.0491114
172	0x3d3712ff	0.04469585
173	0x3d21e7fe	0.039527886
174	0xbcf83a2d	-0.030301178
175	0x3d944c5b	0.07241126
176	0x3c53caae	0.012926741
177	0xbde24990	-0.11049187
178	0x3dddff1d	0.108396746
179	0x3dcb9195	0.09939877
180	0x3cb1543e	0.021646615
181	0x3d738b9b	0.05945931
182	0x3cb70e9a	0.02234583
183	0x3d037331	0.032092277
184	0xbc7a5091	-0.015277998
185	0x3d72872b	0.059210937
186	0xbde792c0	-0.11307287
187	0xbdf920a8	-0.12164432
188	0xbb1b0f45	-0.0023660224
189	0x3d14e33e	0.036349528
190	0xbd18b8cd	-0.037285615
191	0xbd359565	-0.044331927
192	0xbd458e0a	-0.048231162
193	0xbd42d04e	-0.047561936
194	0x3cbf7af5	0.02337406
195	0xbbc4064f	-0.0059821974
196	0x3c62e8f2	0.013849484
197	0xbde9591c	-0.113939494
198	0xbc043e26	-0.008071458
199	0xbcd3df6b	-0.02586337
200	0xbddffc3d	-0.109367825
201	0xbde6abd0	-0.112632394
202	0x3df99636	0.121868536
203	0x3d84f124	0.064913064
204	0x3cf5d3f2	0.03000829
205	0x3cd95dd4	0.026533999
206	0xbdf430f0	-0.119233966
207	0xbd1a00ef	-0.037598547
208	0x3d81fa5b	0.0634658
209	0x3d4e4774	0.05036111
210	0xbd299760	-0.041404128
211	0xbcc2f580	-0.023798704
212	0xbd845caf	-0.064629905
213	0xbd4b6747	-0.04965904
214	0xbda22dc7	-0.079188876
215	0x3cbf1be8	0.023328736
216	0x3dab0292	0.083500996
217	0x3d4469e4	0.047952548
218	0x3da1db7c	0.079031914
219	0x3dad3865	0.08458022
220	0xbba7a368	-0.005115915
221	0x3d433676	0.04765936
222	0xbdc1aca5	-0.094567575
223	0x3dc6d56e	0.09708677
224	0x3df32ef1	0.11874188
225	0xbba0a122	-0.004902021
226	0x3d457b4b	0.048213284
227	0xbd70123b	-0.058611136
228	0xbdda1c2d	-0.10649905
229	0x3dddd392	0.108313695
230	0x3cdfe1fb	0.027329436
231	0x3d8b48b7	0.06800979
232	0xbcc2a31e	-0.023759421
233	0xbd268474	-0.04065366
234	0x3b9c9155	0.004778067
235	0xbdb05112	-0.08609213
236	0xbb835577	-0.004007991
237	0x3dc876fa	0.09788318
238	0xbdfaa296	-0.12238042
239	0xbdb7d0c1	-0.089753635
240	0xbde4dc84	-0.111748725
241	0x3dde1ce5	0.10845355
242	0x3bbfcce7	0.0058532837
243	0xbd93e29d	-0.072209574
244	0xbdf5ea72	-0.120076075
245	0xbdb6c5bd	-0.08924434
246	0xbd331319	-0.043719385
247	0xbd932df4	-0.07186499
248	0x3c3ef061	0.0116539905
249	0xbd9e2ad3	-0.07723012
250	0xbc469ca4	-0.012122307
251	0xbce5e6ea	-0.02806421
252	0x3db871da	0.090060905
253	0xbdb52413	-0.08844771
254	0x3dc7f6c9	0.097638674
255	0x3d4afb35	0.049555976

encoder.0.attention.queries.bias f4 [64]
0	0x3db9980d	0.090622045
1	0x3d57ce18	0.05268678
2	0x3d3ea7a9	0.046546612
3	0x3cb600da	0.022217203
4	0x3dd22f05	0.102628745
5	0xbdc91ae1	-0.0981958
6	0xbe027655	-0.12740453
7	0xbe003f7d	-0.12524219
8	0xbd14377b	-0.036185723
9	0x3dab2c11	0.083580144
10	0xbdfc4440	-0.12317705
11	0x3db470f9	0.0881061
12	0x3cfe998d	0.031079078
13	0x3dca24e4	0.098703176
14	0x3d2bc06e	0.041931562
15	0xbdbc75a6	-0.09202127
16	0xbc4e700f	-0.012599959
17	0x3da69f51	0.08135856
18	0xbd8608e5	-0.06544665
19	0x3de8b9c1	0.11363555
20	0xbbf2c913	-0.007409224
21	0xbdb8cd2e	-0.0902351
22	0x3dac7bdd	0.084220625
23	0xbd9a32b0	-0.07529199
24	0x3a39b07d	0.0007083489
25	0x3db4b8b7	0.08824294
26	0xbdb4652a	-0.08808358
27	0x3d1c20b9	0.038117144
28	0xbdd8d63c	-0.10587737
29	0x3c5eac42	0.013590874
30	0x3ce3536d	0.027749741
31	0x3c15227b	0.009102459
32	0x3d538091	0.051636282
33	0x3da03e1a	0.07824345
34	0xbaf5ddb3	-0.0018758088
35	0xbcfac890	-0.030613214
36	0xbdc50fee	-0.09622179
37	0x3ccbf9a6	0.024899315
38	0x3dc000fb	0.09375187
39	0xbda18b91	-0.07887948
40	0xbdde87bb	-0.10865732
41	0x3da3510b	0.07974442
42	0xbd45cf6d	-0.04829352
43	0x3ccda98a	0.025105257
44	0x3c51027a	0.012756938
45	0xbd373c35	-0.044735152
46	0xbda0b0d1	-0.07846225
47	0xbda0d309	-0.07852752
48	0xbddfbd4f	-0.109247796
49	0x3cb73db2	0.022368286
50	0x3de2505d	0.11050484
51	0x3d5d7183	0.05406333
52	0xbd4610ff	-0.048356052
53	0x3d82bbab	0.06383451
54	0xbdff93f7	-0.12479394
55	0x3d9fce6e	0.07803045
56	0x3e089c6d	0.13340922
57	0x3cb37068	0.021904185
58	0x3ca2190c	0.019787334
59	0xbdca0f2c	-0.09866175
60	0x3d5083e6	0.05090704
61	0x3bc51a2b	0.0060150824
62	0x3de1bb55	0.11022059
63	0xbe00db4f	-0.1258366

encoder.0.attention.keys.weight f4 [64, 64]
0	0xbde7e90b	-0.11323746
1	0x3dadab97	0.08479994
2	0x3d0eb66f	0.03484195
3	0xbcfda9c0	-0.030964732
4	0x3d1c9c6c	0.038235113
5	0x3d2e4ff5	0.04255672
6	0xbd1ff6f6	-0.03905388
7	0x3db31571	0.08744324
8	0x3d4302e4	0.04761018
9	0x3dc15eb6	0.09441893
10	0xbddf64a8	-0.109078705
11	0xbd1377d0	-0.036002934
12	0xbc4704a8	-0.012147106
13	0xbd75afba	-0.05998204
14	0x3d289781	0.04116011
15	0xbd96c3ff	-0.07361602
16	0x3dc588e3	0.0964525
17	0xbdbb7e83	-0.091549896
18	0x3d963135	0.07333604
19	0x3dd01a8a	0.10161312
20	0x3cdaa13d	0.026688213
21	0x3c70efb5	0.014705588
22	0x3d5c2799	0.0537487
23	0x3db378f1	0.08763302
24	0xbdbaee65	-0.091275014
25	0x3c722e39	0.014781528
26	0x3d29523f	0.0413382
27	0xbc36d235	-0.011158516
28	0xbd10f500	-0.0353899
29	0x3db1e1cb	0.08685645
30	0xbc5a38a7	-0.013319171
31	0x3da7171a	0.08158703
32	0x3d362cd4	0.044476345
33	0x3d8ef974	0.06981173
34	0xbd8f738e	-0.07004462
35	0xbdcf8f6a	-0.10134776
36	0xbcc6bec6	-0.02426089
37	0xbdf5d066	-0.120026395
38	0xbd1a6218	-0.037691206
39	0xbd3d42e9	-0.04620639
40	0x3d97671c	0.073927134
41	0x3d96257c	0.07331368
42	0xbb29ced0	-0.0025910623
43	0x3cd6f759	0.026240991
44	0xbcbe7d6b	-0.023253163
45	0xbcf04630	-0.029330343
46	0x3d1f55ef	0.038900312
47	0x3d8b40a0	0.067994356
48	0xbd94bad1	-0.07262195
49	0xbc5575c1	-0.013028563
50	0x3c13ebd6	0.009028396
51	0xbca0dd38	-0.019636735
52	0x3dd420eb	0.10357841
53	0xbd67fab4	-0.056635574
54	0xbd52a48f	-0.051426467
55	0xbdf6b646	-0.12046485
56	0x3d7a1ac7	0.061060693
57	0xbdf299f8	-0.118457735
58	0xbadf63f5	-0.0017043339
59	0xbdf237b3	-0.1182703
60	0xbce55217	-0.027993245
61	0xbd7368f2	-0.059426256
62	0x3de07fe7	0.109618954
63	0xbb0f6eb4	-0.0021886053
64	0xbd23d8b3	-0.040001582
65	0xbdb1a29c	-0.086735934
66	0xbc962906	-0.018330108
67	0x3de80e82	0.11330892
68	0x3b74d4ce	0.0037358287
69	0x3d486326	0.04892268
70	0x3cdc0ea3	0.026862448
71	0x3dcfe4f4	0.10151091
72	0x3d24bf3e	0.040221445
73	0xbce4de09	-0.027937906
74	0xbd601985	-0.054711837
75	0xbbf40959	-0.0074474034
76	0xbdddb187	-0.10824876
77	0x3db99975	0.09062473
78	0x3da8eea3	0.08248641
79	0x3da6e92f	0.08149945
80	0xbdb60328	-0.08887321
81	0x3db6ceba	0.08926149
82	0xbd96bea7	-0.07360583
83	0xbdd5437f	-0.104132645
84	0x3baffa96	0.0053704483
85	0xbdb98736	-0.090589926
86	0xbd93bbf4	-0.072135836
87	0x3d83c441	0.06433917
88	0xbdc78fe5	-0.097442426
89	0xbd5df92b	-0.054192703
90	0xbd9377fe	-0.07200621
91	0xbd0f95eb	-0.035055082
92	0x3de09ffd	0.10968015
93	0x3d8f826a	0.070072964
94	0xbd83c1e6	-0.064334676
95	0x3da980b5	0.08276502
96	0x3d85a56b	0.065256916
97	0x3c5b6c07	0.013392455
98	0xbdd561f5	-0.104190744
99	0xbd109492	-0.035297938
100	0xbd468154	-0.04846318
101	0xbde63a86	-0.11241631
102	0xbcdff72f	-0.027339546
103	0xbd1cd595	-0.038289625
104	0x3de621d5	0.11236922
105	0x3c12ba3a	0.008955533
106	0xbd9307a1	-0.071791895
107	0xbb8bd066	-0.0042667864
108	0xbd9ba6ba	-0.0760016
109	0xbcf6821f	-0.030091343
110	0xbd0045d9	-0.031316612
111	0x3de04ae6	0.10951786
112	0xbdba8ec5	-0.091092624
113	0xbdddacf5	-0.108240046
114	0x3de9f11d	0.11422942
115	0x3b51ba39	0.0032001866
116	0x3dbc7c6d	0.0920342
117	0x3c8fa0ca	0.017532725
118	0xbd6d0bb2	-0.05787248
119	0x3d885e98	0.06658667
120	0x3dab491f	0.08363556
121	0xbd8c7ea8	-0.06860095
122	0xbdaab42d	-0.08335147
123	0x3db76902	0.089555755
124	0x3cc172b9	0.023614274
125	0x3d73d454	0.059528664
126	0x3de062cc	0.10956344
127	0xbda80d5d	-0.08205674
128	0xbdff352e	-0.12461315
129	0xbda8f21b	-0.08249303
130	0x3d50bce4	0.05096139
131	0xbda5eaa7	-0.08101397
132	0xbd9d72e1	-0.07687927
133	0xbc971086	-0.018440496
134	0xbd56252e	-0.05228155
135	0xbd169e85	-0.03677227
136	0xbd7379f0	-0.05944246
137	0x3dead4ac	0.11466345
138	0xbd7557f9	-0.05989835
139	0x3df87628	0.121319115
140	0xbe05fa02	-0.13083652
141	0x3dfbd728	0.12296897
142	0x3d990a2f	0.074726455
143	0xbde3a320	-0.11115098
144	0x3db3be0e	0.087764844
145	0x3dd401e5	0.10351924
146	0x3dce5cf2	0.10076322
147	0x3c61ec7a	0.013789291
148	0xbde818e0	-0.113328695
149	0xbdbe17a3	-0.09281852
150	0x3ba63c5b	0.005073113
151	0x3dfcf3fa	0.12351222
152	0xbd434dcc	-0.047681615
153	0xb92bbedb	-0.0001637893
154	0x3c8500a1	0.016235651
155	0x3dbc8ad2	0.092061654
156	0xbcab57e9	-0.020915942
157	0x3d5cbd91	0.053891722
158	0xbe01aa0d	-0.12662525
159	0x3d0c832a	0.034304775
160	0xbbcf79ca	-0.006331657
161	0xbdd5556f	-0.10416686
162	0x3e04917e	0.12946126
163	0xbdb134fe	-0.086526856
164	0x3dbb1e70	0.09136665
165	0xbda7c0f4	-0.081911
166	0x3ddd6ace	0.10811387
167	0xbd27d848	-0.040977746
168	0x3d0c6bd9	0.03428254
169	0xbd2c3e44	-0.04205157
170	0x3d9d370c	0.07676515
171	0xbd9aa627	-0.07551222
172	0x3e04ad25	0.12956674
173	0x3dc98735	0.09840242
174	0xbd2614c3	-0.040547144
175	0x3d2ee6ce	0.04270058
176	0x3dc06c2a	0.09395631
177	0xbd98fe1a	-0.07470341
178	0x3e0362be	0.12830636
179	0x3d073130	0.033005893
180	0x3e015bae	0.1263263
181	0xbdd0243c	-0.10163161
182	0x3ccca409	0.024980562
183	0x3d2bf3d2	0.041980572
184	0xbd86880d	-0.065689184
185	0xbdba9b89	-0.09111697
186	0xbc24bfa3	-0.010055455
187	0x3cb77b64	0.022397704
188	0xbdf5af05	-0.11996273
189	0x3dda33ae	0.10654388
190	0x3d5aa3b6	0.053378783
191	0x3dcc17df	0.099654905
192	0x3d351516	0.044209562
193	0xbca5b154	-0.020226158
194	0xbc96eeb5	-0.018424371
195	0x3d34bff8	0.04412839
196	0xbd5d584b	-0.05403928
197	0xbd0292dd	-0.03187834
198	0x3c5e50e5	0.013569091
199	0x3d26d7e5	0.040733237
200	0x3d70f656	0.058828674
201	0x3d58f9fe	0.052972786
202	0xbc9f0f1a	-0.01941638
203	0x3cdc6015	0.026901284
204	0xbd2cd457	-0.04219469
205	0xbbc51026	-0.006013888
206	0xbccd5c9f	-0.02506858
207	0xbdf589f1	-0.11989201
208	0x3d2988dc	0.041390285
209	0x3db1d78e	0.08683692
210	0xbdbc6a9a	-0.0920002
211	0x3ddceda0	0.10787511
212	0xbc01977c	-0.007909652
213	0x3dcd225e	0.10016321
214	0xbddd30a9	-0.10800297
215	0xbdabd7db	-0.083907805
216	0xbdceb7dd	-0.10093663
217	0x3dcc4ef4	0.099759966
218	0x3da52ef1	0.08065594
219	0xbdbc3f69	-0.09191782
220	0xbc1c2874	-0.009531129
221	0x3dbb423a	0.09143491
222	0xbd8c3f7d	-0.06848047
223	0x3cecfe3c	0.028929822
224	0xbcce2955	-0.025166193
225	0xbccd162c	-0.025034986
226	0x3dc7e1a2	0.09759833
227	0xbdbd89ca	-0.09254797
228	0x3def50cd	0.116853334
229	0x3d3c58ec	0.04598324
230	0x3d305d7b	0.0430579
231	0xbda5c879	-0.08094878
232	0xbcb0e500	-0.02159357
233	0x3d0e82d0	0.03479272
234	0xbdd9e678	-0.106396616
235	0xbde6b441	-0.112648495
236	0x3d20be4d	0.039243985
237	0x3d19ad77	0.037518945
238	0xbdb65f07	-0.08904844
239	0xbd923de0	-0.07140708
240	0xbcb6d8c9	-0.022320168
241	0xbcca31b4	-0.024681903
242	0xbd5ef0ef	-0.05442899
243	0x3ce72ae6	0.028218698
244	0x3d31c5d4	0.043401554
245	0x3d779b54	0.060450867
246	0xbda80d86	-0.082057044
247	0x3d8ebb20	0.06969285
248	0xbd880ae5	-0.06642703
249	0x3d56f3bd	0.05247854
250	0xbd4b0e97	-0.04957446
251	0x3d11dba2	0.03560985
252	0x3d32e454	0.043674782
253	0x3dbc33b6	0.091895506
254	0xbdbd4023	-0.09240749
255	0xbcad0532	-0.021120641

encoder.0.attention.keys.bias f4 [64]
0	0x3df458ba	0.11930986
1	0x3d97e818	0.07417315
2	0x3d895313	0.06705298
3	0x3a434916	0.00074495503
4	0x3b4ebb4b	0.003154474
5	0xbc5ad074	-0.013355363
6	0x3d863eaa	0.06554921
7	0xbc97cc23	-0.018529957
8	0xbda08e48	-0.07839638
9	0xbd3a0821	-0.04541791
10	0x3d4b0520	0.049565434
11	0xbd05b95a	-0.03264747
12	0xbddb8ccc	-0.10720214
13	0xbdbdc08a	-0.092652395
14	0xbdcc38e9	-0.09971792
15	0x3cc868c9	0.024464028
16	0xbd90b895	-0.07066456
17	0xbcc6a966	-0.024250697
18	0xbda6a792	-0.0813743
19	0x3d969da8	0.07354289
20	0xbd300bf9	-0.042980168
21	0xbd60f653	-0.054922413
22	0x3dcfc2b5	0.10144559
23	0x3d88979a	0.06669541
24	0xbcb8074c	-0.022464417
25	0x3db43af6	0.088003084
26	0xbdd93f86	-0.10607819
27	0x3dbccffd	0.09219358
28	0xbdc7a087	-0.09747415
29	0x3df8bcb3	0.121453665
30	0x3d9a2259	0.075260825
31	0xbd71e3e9	-0.059055243
32	0xbd8de05f	-0.06927561
33	0xbcf433d6	-0.029809874
34	0xbd49d63f	-0.049276587
35	0xbd924520	-0.07142091
36	0xbca48f9f	-0.020088015
37	0x3cf7b9bb	0.03023993
38	0x3ae5b1b7	0.0017524277
39	0xba3c16db	-0.00071750366
40	0xbd16ca9c	-0.036814317
41	0x3c8e8201	0.017395975
42	0xbde35b70	-0.11101425
43	0xbdc9520e	-0.09830104
44	0xbd782471	-0.06058163
45	0xbb9e3554	-0.0048281346
46	0xbc99d1dd	-0.018776828
47	0xbc8b8600	-0.01703167
48	0x3c2f4131	0.010696695
49	0x3c92bef1	0.017913314
50	0x3dc35791	0.09538186
51	0xbdd86113	-0.105653904
52	0xbdf00afc	-0.11720845
53	0xbda844e3	-0.08216264
54	0x3d26daa0	0.04073584
55	0x3de8e91f	0.11372589
56	0x3da28ef8	0.079374254
57	0xbd7c2a98	-0.061564058
58	0xbdc2f1e6	-0.09518795
59	0x3de6f61d	0.11277411
60	0xbdbf7e14	-0.09350219
61	0x3d4592de	0.048235767
62	0x3df2a9c8	0.118487895
63	0x3dfd5425	0.12369565

encoder.0.attention.values.weight f4 [64, 64]
0	0x3c8a0be2	0.01685137
1	0x3c041cd4	0.008063514
2	0xbc1f5bb1	-0.009726451
3	0xbdf748bf	-0.12074422
4	0x3c9c68a1	0.01909286
5	0xbd57fb22	-0.052729733
6	0x3d4deecf	0.050276574
7	0x3d951c56	0.07280795
8	0x3dd45f31	0.10369719
9	0x3d825e50	0.06365645
10	0xbde5e746	-0.112257525
11	0x3c66c713	0.014085549
12	0x3d81ba97	0.06334417
13	0xbcf2d846	-0.029644143
14	0x3c82115e	0.015877422
15	0xbd72a1c9	-0.05923632
16	0x3d65a98d	0.0560699
17	0xbda2e49c	-0.0795376
18	0xbdc460a4	-0.09588745
19	0xbd67332f	-0.056445297
20	0x3df3ca4b	0.11903819
21	0xbdcb3d39	-0.09923787
22	0xbdb32d70	-0.08748901
23	0xbd5d0db2	-0.05396814
24	0x3df7d987	0.12102037
25	0xbde32697	-0.11091345
26	0x3d9c0fde	0.07620214
27	0x3df1b7b5	0.118026175
28	0x3dd4cd28	0.10390693
29	0xbc63bd81	-0.013900162
30	0xbd844eef	-0.06460368
31	0xbddbea51	-0.10738052
32	0x3d6fb43f	0.058521505
33	0xbcf86b74	-0.030324675
34	0x3d0e83a8	0.034793526
35	0x3de913d4	0.11380735
36	0x3d9e435b	0.07727691
37	0xbd16c331	-0.036807243
38	0xbd2ec605	-0.042669315
39	0xbd0716b7	-0.032980647
40	0x3d5de279	0.05417106
41	0x3db8935a	0.0901248
42	0xbd39fbb7	-0.04540607
43	0x3d9b4ce1	0.07583023
44	0xbd9f0d4a	-0.077662066
45	0xbd83b307	-0.06430631
46	0x3d6f33ef	0.058399137
47	0xbca9fd53	-0.020750677
48	0x3d29070c	0.041266486
49	0xbd19379d	-0.037406553
50	0x3d9b6c6e	0.07589041
51	0x3e0001fc	0.12500757
52	0x3d91e939	0.07124562
53	0x3d42e642	0.047582872
54	0xbb70a415	-0.0036718894
55	0xbcd40b6a	-0.025884349
56	0x3d89a202	0.06720354
57	0xbd176f0d	-0.03697114
58	0x3dfd4edb	0.12368556
59	0xbca3ced3	-0.019996082
60	0x3d25314b	0.040330213
61	0xbc9b54a4	-0.018961258
62	0xbde65320	-0.112463236
63	0xbd8ef509	-0.069803305
64	0x3d2ced59	0.04221854
65	0xbd7690ab	-0.06019656
66	0xbdd57f33	-0.10424652
67	0x3dcabec0	0.09899664
68	0x3dc05cb9	0.093926854
69	0xbd762de0	-0.060102344
70	0xbdc1dc57	-0.094658546
71	0xbdd11e84	-0.102108985
72	0x3c72e191	0.014824287
73	0x3d65b57c	0.05608128
74	0x3c030149	0.007995912
75	0x3dbf78ff	0.0934925
76	0x3df5d2d5	0.12003104
77	0x3d067278	0.03282401
78	0xbdeea185	-0.11651901
79	0x3d4aa02b	0.049469154
80	0xbdb06538	-0.08613056
81	0x3d23532f	0.039874252
82	0xbdbbd959	-0.09172315
83	0x3d4fdd24	0.050748006
84	0x3ce3b3aa	0.027795631
85	0xbd492f72	-0.049117513
86	0x3c9fb869	0.019497113
87	0x3c6ac929	0.014330187
88	0xbdc54131	-0.09631575
89	0xbd9b29e0	-0.075763464
90	0xbd92db99	-0.07170791
91	0x3df92f64	0.12167242
92	0x3d3dd3c8	0.04634455
93	0xbdb55c86	-0.08855538
94	0xbdc498f5	-0.09599487
95	0x3c873e3e	0.016509172
96	0x3d9f97cf	0.07792627
97	0xbd14777a	-0.036246754
98	0xbd211476	-0.039326154
99	0x3daf4517	0.085581
100	0x3dee378f	0.11631691
101	0x3c1de8f4	0.00963806
102	0xbd33d889	-0.043907676
103	0xbdef53ef	-0.11685931
104	0x3d0857b6	0.033286773
105	0xbd8c4e4a	-0.0685087
106	0x3dda3c03	0.106559776
107	0x3ded98b7	0.11601394
108	0x3d074eae	0.03303402
109	0x3d43035a	0.04761062
110	0xbd98b338	-0.07456058
111	0xbdbe01bb	-0.09277674
112	0x3d0db5b3	0.03459711
113	0x3d08f586	0.033437274
114	0x3de64df7	0.11245339
115	0x3ce686a3	0.028140372
116	0x3c9de344	0.019273408
117	0x3d8b6754	0.06806818
118	0xbd2c5954	-0.042077377
119	0x3d8863a9	0.06659634
120	0xbe01d1ce	-0.1267769
121	0x3d3ade6e	0.04562228
122	0x3d958f00	0.07302666
123	0x3d14bd8b	0.036313575
124	0x3d96f407	0.07370763
125	0x3db9a3bd	0.09064434
126	0x3df69966	0.12040977
127	0x3dc63c0e	0.09679423
128	0xbb624aa7	-0.003452936
129	0x3db5dc99	0.08879966
130	0x3d93bb5b	0.072134696
131	0x3d5b8ab1	0.053599063
132	0x3dbe28b3	0.092851065
133	0xbd9d0929	-0.07667763
134	0xbca90e82	-0.0206368
135	0xbd2159e2	-0.03939236
136	0x3dd1fb68	0.1025303
137	0xbd305b4b	-0.043055814
138	0x3ccd211f	0.025040207
139	0xbd808924	-0.062761575
140	0xbd27b20f	-0.040941294
141	0xbdd56287	-0.10419183
142	0x3d08904c	0.033340737
143	0xbcab759e	-0.020930108
144	0x3d83b7d0	0.06431544
145	0xbd853bf2	-0.06505574
146	0xbd9d0587	-0.0766707
147	0xbd39df98	-0.04537925
148	0xbdf71186	-0.12063889
149	0x3db829a8	0.0899232
150	0x3c05d9de	0.008169619
151	0xbd53324f	-0.05156165
152	0xbdc0cdd8	-0.094142616
153	0xbdfaab62	-0.1223972
154	0xbda95a03	-0.082691215
155	0xbdd6a3bb	-0.10480448
156	0xbcbc24ff	-0.02296686
157	0x3df61554	0.12015787
158	0xbd8814cf	-0.06644594
159	0xbdc55e49	-0.09637124
160	0x3d14f9d6	0.036371075
161	0x3d8df9ce	0.06932412
162	0xbdbd4a7a	-0.09242721
163	0xbdcf2041	-0.10113574
164	0xbd938625	-0.072033204
165	0x3db1166b	0.08646854
166	0xbdabb246	-0.08383612
167	0x3cb45b01	0.02201605
168	0xbd93786e	-0.072007045
169	0x3d970696	0.07374303
170	0x3de72f23	0.112882875
171	0xbd168187	-0.03674462
172	0x3d96cffb	0.07363888
173	0x3ab87ad6	0.0014074694
174	0x3cf8d15d	0.03037327
175	0xbdb13dca	-0.086543635
176	0xbd9e914b	-0.07742556
177	0x3d9245a6	0.07142191
178	0xbdfb12e0	-0.122594595
179	0x3d101422	0.03517545
180	0x3d848518	0.06470698
181	0xbdb20cff	-0.08693885
182	0x3cc0c594	0.023531713
183	0xbde21ce2	-0.11040665
184	0xbd7ed48e	-0.062214427
185	0x3dc4e17b	0.096133195
186	0x3d734418	0.05939111
187	0x3b3684d0	0.0027850159
188	0xbd8498fd	-0.06474493
189	0xbcbe11eb	-0.023201903
190	0xbda30253	-0.07959428
191	0xbcf58d1e	-0.029974516
192	0x3dab6987	0.08369737
193	0x3d707248	0.058702737
194	0x3d32e91b	0.043679338
195	0x3ba2d816	0.004969607
196	0x3bed2719	0.007237327
197	0x3d84222f	0.064518325
198	0xbc1fc68b	-0.009751926
199	0x3db81337	0.0898804
200	0xbdae9884	-0.08525184
201	0x3df0ae15	0.117519535
202	0xbb016acb	-0.0019747491
203	0x3d49d5ff	0.04927635
204	0x3c826ba0	0.01592046
205	0xbdf94347	-0.12171035
206	0xbdd25ac8	-0.102712214
207	0xbdcf634f	-0.101263635
208	0x3d6d2a75	0.05790182
209	0xbdf0e180	-0.11761761
210	0x3998141f	0.0002900669
211	0x3d93bd67	0.0721386
212	0xbd531edb	-0.051543098
213	0x3c126dd1	0.008937315
214	0x3d964907	0.073381476
215	0x3b408448	0.002937572
216	0xbdc7e019	-0.0975954
217	0xbd8d5395	-0.06900708
218	0x3c32039f	0.010865121
219	0x3dbd4457	0.092415504
220	0xbd2f305a	-0.04277072
221	0xbd892e9a	-0.06698342
222	0xbb116e64	-0.0022191042
223	0x3dd98982	0.10621931
224	0x3dde7252	0.108616486
225	0x3db7badb	0.08971187
226	0x3cb43703	0.021998888
227	0xbd2b76be	-0.04186129
228	0x3c1026bb	0.008798297
229	0x3d9562b9	0.072942205
230	0xbcf92a2d	-0.030415619
231	0xbda750a3	-0.08169677
232	0x3df27af8	0.11839861
233	0xbd8bd2d7	-0.06827324
234	0xbdc4033f	-0.09570932
235	0xbd4cfccd	-0.050045777
236	0x3da9680c	0.082717985
237	0xbdd30c74	-0.103051096
238	0xbd86adda	-0.06576128
239	0xbbab328e	-0.0052245324
240	0xbd907fa7	-0.07055598
241	0xbdc80f8c	-0.0976859
242	0xbbb57250	-0.0055373088
243	0x3ddbe7a9	0.10737545
244	0xbdbc3c26	-0.0919116
245	0xbd9ad06a	-0.07559283
246	0x3cf217f4	0.029552437
247	0x3de9e655	0.114208855
248	0x3d9a4b76	0.07533924
249	0xbcf72363	-0.03016824
250	0x3d8beed1	0.0683266
251	0x3d43e497	0.047825422
252	0xbb21cc5d	-0.002468846
253	0x3c85814a	0.016297001
254	0x3c7f9dd7	0.015601597
255	0x3d996fbf	0.07492017

encoder.0.attention.values.bias f4 [64]
0	0x3daadcda	0.08342905
1	0xbde379ff	-0.11107253
2	0x3cc1ed84	0.023672827
3	0xbc7f29e9	-0.015573957
4	0xbd25f0e5	-0.040512938
5	0x3da9f725	0.08299092
6	0x3deafccf	0.11474001
7	0xbd8be585	-0.06830887
8	0x3d1c5d3c	0.038174853
9	0xbd6f5cdd	-0.05843817
10	0xbd8c7fd2	-0.06860317
11	0xbda69ff0	-0.081359744
12	0xbdef78d0	-0.11692965
13	0xbd6ea1fa	-0.05825994
14	0x3cec48cf	0.028843312
15	0x3d28e32c	0.041232273
16	0x3d6ddc28	0.058071285
17	0x3d655827	0.05599227
18	0xbdccbf20	-0.09997392
19	0x3dd5a1a3	0.104312204
20	0xbde2d800	-0.11076355
21	0x3cea13e0	0.02857393
22	0xbd35d56a	-0.04439298
23	0xbc8c8d90	-0.017157346
24	0xbda9403c	-0.08264205
25	0x3da5d3bc	0.08097026
26	0x3d76edac	0.060285255
27	0xbd70bdc0	-0.05877471
28	0x3dad8d68	0.08474237
29	0xbdfe3963	-0.124132894
30	0xbcad1f7f	-0.021133183
31	0xbddfba6f	-0.10924231
32	0xbda0718e	-0.07834159
33	0xbc2573f0	-0.010098442
34	0xbda5a53d	-0.08088157
35	0xbd0f0a2c	-0.03492181
36	0x3cd80328	0.026368693
37	0x3dbf18bc	0.093308896
38	0x3c067570	0.00820671
39	0x3dc5e346	0.096624896
40	0x3d2470df	0.040146705
41	0x3ddebead	0.10876212
42	0x3d330124	0.04370226
43	0x3cf0aa1d	0.029377991
44	0xbd771561	-0.060323123
45	0x3dedb6db	0.116071425
46	0x3dc1bbac	0.09459624
47	0x3d919122	0.0710776
48	0x3db07920	0.08616853
49	0xbab48a95	-0.0013774211
50	0xbce8252b	-0.028338036
51	0x3d42ad7b	0.047528725
52	0xbdae9012	-0.08523573
53	0x3ba04ffb	0.004892347
54	0x3dc83019	0.09774799
55	0xbde187c0	-0.110122204
56	0xbd259a62	-0.040430434
57	0xbd1f9949	-0.038964543
58	0x3dce3750	0.10069144
59	0xbdd7fbea	-0.10546096
60	0x3cda9faa	0.026687462
61	0xbcffd8e5	-0.031231353
62	0x3df7b3ee	0.12094866
63	0xbdf86066	-0.121277615

encoder.0.fc1.weight f4 [128, 64]
0	0x3c5eb078	0.013591878
1	0x3de5a73a	0.112135366
2	0xbd3d3076	-0.046188794
3	0x3cc20be8	0.023687318
4	0xbd944833	-0.072403334
5	0xbdac4f3d	-0.08413551
6	0xbe007482	-0.12544444
7	0xbddd7ac9	-0.10814435
8	0xbdac98bb	-0.084275685
9	0x3c9ef89c	0.019405656
10	0xbd09654c	-0.03354387
11	0xbda5ecee	-0.081018314
12	0xbd578a34	-0.052622035
13	0xbb11da55	-0.002225538
14	0xbd0259e7	-0.03182402
15	0x3b24ed10	0.0025165714
16	0xbd484a2f	-0.048898872
17	0x3d2667ed	0.040626455
18	0x3dd2530c	0.10269746
19	0x3c2204d7	0.009888849
20	0x3d22a3e4	0.03970708
21	0xbdef4ed8	-0.1168496
22	0xbca97ba0	-0.020688832
23	0x3dee5349	0.11636979
24	0xbbff7ba0	-0.0077967197
25	0xbd4a9b43	-0.049464475
26	0xbb95c623	-0.004570739
27	0x3debcf1b	0.115141116
28	0xbde233f2	-0.11045064
29	0x3dab65ee	0.08369051
30	0x3daacd37	0.08339923
31	0x3db8e3ef	0.0902785
32	0x3dcc0bd5	0.09963194
33	0x3d71181a	0.058860876
34	0xbd9be579	-0.07612128
35	0x3dd0f41d	0.10202811
36	0xbdcd5ace	-0.10027085
37	0x3ceba4cf	0.02876511
38	0xbd82c987	-0.063860945
39	0xbdc004d2	-0.093759194
40	0xbdb84e81	-0.089993484
41	0x3d92f1c0	0.071750164
42	0xbdd0fdcd	-0.10204659
43	0x3d25f4df	0.04051673
44	0x3d7c0e95	0.061537344
45	0xbd16b0d7	-0.03678974
46	0xbcc4f847	-0.02404417
47	0x3dd02e6e	0.10165106
48	0xbd52f34b	-0.051501554
49	0xbd819697	-0.06327551
50	0x3db44f07	0.08804136
51	0x3d9671de	0.07345937
52	0x3d20e09e	0.03927671
53	0xbd4061bf	-0.046968218
54	0xbcaf499e	-0.021397408
55	0xbdcca59b	-0.09992524
56	0x3ca9855b	0.020693472
57	0x3db654ad	0.089028694
58	0xbd8cea87	-0.0688067
59	0xbdf2106e	-0.1181954
60	0x3ddf3a00	0.108997345
61	0x3d9458d7	0.07243507
62	0xbc61e067	-0.013786412
63	0xbb371529	-0.0027936196
64	0x3caed14e	0.021340039
65	0xbde82e35	-0.11336938
66	0xbcf3f54f	-0.029780058
67	0x3d21faf3	0.039545964
68	0x3d14f6d3	0.036368202
69	0xbb20fdeb	-0.002456541
70	0xbd98d90e	-0.07463275
71	0x3db0329f	0.08603405
72	0xbd3d5a96	-0.046228968
73	0x3d5fa3f6	0.054599725
74	0x3d9327ab	0.071853004
75	0x3c38613d	0.011253652
76	0x3c198f97	0.009372613
77	0x3b918f71	0.0044421484
78	0x3c867243	0.016411906
79	0xbdeb554a	-0.11490877
80	0xbdbaa46e	-0.09113394
81	0xbcf163e0	-0.02946657
82	0xbb8191b9	-0.003954139
83	0x3d4c0cf6	0.049817048
84	0xbd1c641b	-0.038181406
85	0xbd3cd4e0	-0.04610145
86	0x3d346c64	0.04404868
87	0x3d965912	0.073412076
88	0xbdfe60cf	-0.124208085
89	0x3d9771cd	0.07394753
90	0xbdd4b22d	-0.10385547
91	0x3d327178	0.043565243
92	0x3c898b06	0.016789924
93	0xbc92c5de	-0.017916616
94	0x3da669bf	0.08125638
95	0xbd8ec438	-0.069710195
96	0x3df8e136	0.121523306
97	0xbcae78cd	-0.021297837
98	0xbcf90b0c	-0.030400775
99	0xbd67a159	-0.056550357
100	0xbdc4ab65	-0.096030034
101	0x3db4b974	0.08824435
102	0x3d8fc565	0.07020072
103	0xbe077c9c	-0.13231128
104	0x3d83a43c	0.064278096
105	0xbd58c2fb	-0.052920323
106	0xbdbd3b4b	-0.09239825
107	0x3e06a8a0	0.13150263
108	0xbb68ad46	-0.003550367
109	0x3df01b13	0.11723914
110	0xbccf5990	-0.025311261
111	0xbd03e079	-0.032196496
112	0xbce48811	-0.027896913
113	0x3dbe3905	0.09288219
114	0xbdc71478	-0.09720701
115	0x3dac17a2	0.08402945
116	0xbdb2fa93	-0.087391995
117	0x3e003312	0.12519482
118	0xbd574b66	-0.05256214
119	0x3d798e79	0.06092689
120	0xbda6ebc3	-0.08150437
121	0xbd1a944e	-0.03773909
122	0x3dc5230c	0.09625825
123	0x3ddae4e6	0.1068819
124	0x3a6c3dda	0.0009011902
125	0xbb3f48b8	-0.002918763
126	0x3d3638b5	0.044487674
127	0xbdeef1fc	-0.116672486
128	0x3bd9ecfd	0.0066505657
129	0xbc0b0453	-0.008484918
130	0x3dc9a8ce	0.0984665
131	0xbdbd46a5	-0.0924199
132	0xbc52ad20	-0.012858659
133	0xbbe48714	-0.0069741104
134	0x3d6f5573	0.0584311
135	0x3dbb8eae	0.09158073
136	0x3d9a5223	0.075351976
137	0xbdc762f5	-0.097356714
138	0xbda7b791	-0.081893094
139	0xbd809021	-0.062774904
140	0x3ca1f83b	0.019771686
141	0x3dd31097	0.10305899
142	0xbd721a8e	-0.059107356
143	0xbcec2a36	-0.028828721
144	0xbdc95264	-0.09830168
145	0xbd6ee164	-0.058320418
146	0xbd5c822b	-0.053835075
147	0x3dd766a8	0.10517627
148	0xbdc0bb62	-0.094107404
149	0x3d57ce8d	0.052687217
150	0xbd8d0704	-0.06886104
151	0xbd41ee34	-0.04734631
152	0xbc837660	-0.016047657
153	0x3dd52c05	0.10408787
154	0xbd322458	-0.04349169
155	0x3dbad661	0.09122921
156	0x3dae7eaa	0.08520253
157	0x3dbb751e	0.09153198
158	0x3c6ea356	0.0145653095
159	0xbda9f3fa	-0.08298488
160	0x3d82199c	0.06352541
161	0x3d9283a2	0.07154013
162	0xbc4a02cc	-0.012329768
163	0x3d1c0113	0.038086962
164	0x3da54357	0.08069485
165	0x3cee1062	0.029060546
166	0xbcd035a0	-0.025416195
167	0xbcf62e1d	-0.030051285
168	0xbc43321e	-0.011913804
169	0x3d5f3494	0.0544935
170	0x3cf99a1a	0.03046899
171	0xbd07b89c	-0.03313504
172	0x3de4bb41	0.11168528
173	0x3db63262	0.088963285
174	0x3da176ad	0.07883964
175	0x3d9bfc60	0.07616496
176	0x3dca9ffe	0.09893797
177	0x3daad93f	0.08342218
178	0x3de1d53a	0.11026998
179	0xbcc9c4a5	-0.0246299
180	0xbdc400d6	-0.09570472
181	0x3dfb62ea	0.12274726
182	0x3d5c0be4	0.053722277
183	0xbdac2199	-0.08404846
184	0x3d49957a	0.049214818
185	0x3db22c87	0.08699899
186	0xbdab5741	-0.08366252
187	0x3cb7d208	0.022439018
188	0xbdf4651f	-0.1193335
189	0x3dfe054a	0.124033526
190	0xbdd60bfa	-0.10451503
191	0xbce7a79c	-0.028278165
192	0x3d7406bd	0.05957674
193	0x3cd80e59	0.026374029
194	0x3d3ddf08	0.046355277
195	0x3de0d137	0.109774046
196	0x3dcb4625	0.099254884
197	0x3d11225c	0.03543316
198	0x3e041baa	0.12901178
199	0xbdecd1dc	-0.11563465
200	0xbd8a3082	-0.067475334
201	0x3a596618	0.0008293106
202	0xbd90fe2f	-0.07079732
203	0x3df2cead	0.118558265
204	0x3ddb10bc	0.10696551
205	0x3ccbacd9	0.024862694
206	0x3d74ae60	0.05973661
207	0x3db5bebd	0.08874271
208	0xbc886b76	-0.016652804
209	0xbdbf8797	-0.093520336
210	0x3da713c0	0.08158064
211	0x3de283b4	0.11060277
212	0xbda1c365	-0.07898597
213	0xbdeade5f	-0.11468195
214	0x3d4f0e4b	0.05055074
215	0x3d0b1111	0.033951823
216	0xbb4b1449	-0.0030987433
217	0xbd450617	-0.04810151
218	0x3d066b49	0.03281716
219	0xbdab393c	-0.08360526
220	0x3dbc685b	0.09199592
221	0xbcb8917e	-0.022530314
222	0x3b58c984	0.0033079097
223	0xbb9545cd	-0.00455544
224	0xbda28d23	-0.07937076
225	0xbdba5e4e	-0.091000184
226	0x3d61f374	0.055163816
227	0xbda55928	-0.08073646
228	0x3d8a55dd	0.06754658
229	0xbd67c336	-0.056582652
230	0xbd4ebe51	-0.05047447
231	0x3d24aad1	0.040201966
232	0x3cba7eed	0.022765601
233	0x3b40fe53	0.0029448464
234	0xbbe493b8	-0.0069756173
235	0x3dbee76c	0.09321484
236	0x3da7c40f	0.08191692
237	0xbd83abc0	-0.06429243
238	0x3cf26d74	0.029593207
239	0x3de58995	0.11207882
240	0x3caef987	0.021359218
241	0x3d921996	0.071337864
242	0x3dafb732	0.085798636
243	0xbd914542	-0.07093288
244	0x3dce840e	0.10083781
245	0x3ddf0602	0.10889818
246	0xbccbe247	-0.02488817
247	0xbd101c00	-0.035182953
248	0x3dce7c4e	0.10082303
249	0x3d78b0eb	0.060715597
250	0x3da02749	0.07819993
251	0x3df66478	0.12030882
252	0xbde7a9a1	-0.11311651
253	0xbd137264	-0.035997763
254	0x3d275af5	0.040858228
255	0xbdad8e2b	-0.08474382
